…
Loading checkpoint shards:   0%|          | 0/3 [00:00<?, ?it/s]Loading checkpoint shards:  33%|███▎      | 1/3 [00:03<00:06,  3.02s/it]Loading checkpoint shards:  67%|██████▋   | 2/3 [00:05<00:02,  2.98s/it]Loading checkpoint shards: 100%|██████████| 3/3 [00:08<00:00,  2.55s/it]Loading checkpoint shards: 100%|██████████| 3/3 [00:08<00:00,  2.67s/it]
-->device cuda:0
-->model.device cuda:0
-->raw_datasets DatasetDict({
    train: Dataset({
        features: ['Unnamed: 0', 'text', 'label'],
        num_rows: 7492
    })
    validation: Dataset({
        features: ['Unnamed: 0', 'text', 'label'],
        num_rows: 3211
    })
    test: Dataset({
        features: ['Unnamed: 0', 'text', 'label'],
        num_rows: 3211
    })
})
load_metric
end load_metric
-->model.device cuda:0
3
-->Do Custom Model
-->model LlamaForSequenceClassification(
  (model): LlamaModel(
    (embed_tokens): Embedding(32000, 4096, padding_idx=2)
    (layers): ModuleList(
      (0-31): 32 x LlamaDecoderLayer(
        (self_attn): LlamaAttention(
          (q_proj): Linear(in_features=4096, out_features=4096, bias=False)
          (k_proj): Linear(in_features=4096, out_features=4096, bias=False)
          (v_proj): Linear(in_features=4096, out_features=4096, bias=False)
          (o_proj): Linear(in_features=4096, out_features=4096, bias=False)
          (rotary_emb): LlamaRotaryEmbedding()
        )
        (mlp): LlamaMLP(
          (gate_proj): Linear(in_features=4096, out_features=11008, bias=False)
          (up_proj): Linear(in_features=4096, out_features=11008, bias=False)
          (down_proj): Linear(in_features=11008, out_features=4096, bias=False)
          (act_fn): SiLUActivation()
        )
        (input_layernorm): LlamaRMSNorm()
        (post_attention_layernorm): LlamaRMSNorm()
      )
    )
    (norm): LlamaRMSNorm()
  )
  (score): Linear(in_features=4096, out_features=2, bias=False)
)
hidden_size:4096, bottleneck_size:328
-->debias_args.do_debias
-->gamma 0.6
-->gamma 0.6
-->model AddedLayers(
  (model): Sequential(
    (0): Linear(in_features=4096, out_features=328, bias=True)
    (1): GELU(approximate='none')
    (2): Linear(in_features=328, out_features=4096, bias=True)
    (3): GELU(approximate='none')
    (4): Linear(in_features=4096, out_features=328, bias=True)
    (5): GELU(approximate='none')
    (6): Linear(in_features=328, out_features=4096, bias=True)
  )
)
-->classifier Linear(in_features=4096, out_features=2, bias=False)
-->MinValue:-2.271099895830676, MaxValue:2.2792810789854263
-->epoch 0
-->batch_size 98
-->weights tensor([2.3148, 0.6378], device='cuda:2')
-->FUR:0.0, FU:0.0, P:40
-->FUR:0.0, FU:0.0, P:26
-->FUR:0.0, FU:0.0, P:1
-->FUR:0.0, FU:0.0, P:4
-->None
-->FUR:0.0, FU:0.0, P:7
-->FUR:0.0, FU:0.0, P:13
…
